…
@@@bond_hiddens tensor([[0.0000, 0.0000, 0.0000,  ..., 0.0000, 0.0000, 0.0000],
        [0.0000, 0.1027, 0.0000,  ..., 0.1391, 0.0000, 0.0000],
        [0.0762, 0.0757, 0.0000,  ..., 0.1201, 0.0000, 0.0000],
        ...,
        [0.0000, 0.0364, 0.0000,  ..., 0.1650, 0.0000, 0.0000],
        [0.0083, 0.0619, 0.0000,  ..., 0.0290, 0.0000, 0.0000],
        [0.0000, 0.0364, 0.0000,  ..., 0.1650, 0.0000, 0.0000]])


@@@atom_hiddens torch.Size([33, 1200])
@@@bond_hiddens torch.Size([57, 1200])


@@@MultiReadout MultiReadout(
  (readout_0): FFN(
    (ffn): DenseLayers(
      (dense_layers): Sequential(
        (0): Dropout(p=0.0, inplace=False)
        (1): Linear(in_features=1200, out_features=900, bias=True)
        (2): ReLU()
        (3): Dropout(p=0.0, inplace=False)
        (4): Linear(in_features=900, out_features=900, bias=True)
        (5): ReLU()
        (6): Dropout(p=0.0, inplace=False)
        (7): Linear(in_features=900, out_features=900, bias=True)
        (8): ReLU()
        (9): Dropout(p=0.0, inplace=False)
        (10): Linear(in_features=900, out_features=1, bias=True)
      )
    )
    (weights_readout): DenseLayers(
      (dense_layers): Sequential(
        (0): Dropout(p=0.0, inplace=False)
        (1): Linear(in_features=1200, out_features=900, bias=True)
        (2): ReLU()
        (3): Dropout(p=0.0, inplace=False)
        (4): Linear(in_features=900, out_features=900, bias=True)
        (5): ReLU()
        (6): Dropout(p=0.0, inplace=False)
        (7): Linear(in_features=900, out_features=900, bias=True)
        (8): ReLU()
        (9): Dropout(p=0.0, inplace=False)
        (10): Linear(in_features=900, out_features=1, bias=True)
      )
    )
  )
  (readout_1): FFN(
    (ffn): DenseLayers(
      (dense_layers): Sequential(
        (0): Dropout(p=0.0, inplace=False)
        (1): Linear(in_features=1200, out_features=900, bias=True)
        (2): ReLU()
        (3): Dropout(p=0.0, inplace=False)
        (4): Linear(in_features=900, out_features=900, bias=True)
        (5): ReLU()
        (6): Dropout(p=0.0, inplace=False)
        (7): Linear(in_features=900, out_features=900, bias=True)
        (8): ReLU()
        (9): Dropout(p=0.0, inplace=False)
        (10): Linear(in_features=900, out_features=1, bias=True)
      )
    )
    (weights_readout): DenseLayers(
      (dense_layers): Sequential(
        (0): Dropout(p=0.0, inplace=False)
        (1): Linear(in_features=1200, out_features=900, bias=True)
        (2): ReLU()
        (3): Dropout(p=0.0, inplace=False)
        (4): Linear(in_features=900, out_features=900, bias=True)
        (5): ReLU()
        (6): Dropout(p=0.0, inplace=False)
        (7): Linear(in_features=900, out_features=900, bias=True)
        (8): ReLU()
        (9): Dropout(p=0.0, inplace=False)
        (10): Linear(in_features=900, out_features=1, bias=True)
      )
    )
  )
  (readout_2): FFN(
    (ffn): DenseLayers(
      (dense_layers): Sequential(
        (0): Dropout(p=0.0, inplace=False)
        (1): Linear(in_features=1200, out_features=900, bias=True)
        (2): ReLU()
        (3): Dropout(p=0.0, inplace=False)
        (4): Linear(in_features=900, out_features=900, bias=True)
        (5): ReLU()
        (6): Dropout(p=0.0, inplace=False)
        (7): Linear(in_features=900, out_features=900, bias=True)
        (8): ReLU()
        (9): Dropout(p=0.0, inplace=False)
        (10): Linear(in_features=900, out_features=3, bias=True)
      )
    )
  )
)


@@@mol_index 0
@@@mol_index 1
@@@mol_index 2
@@@mol_index 3


@@@mol_graph.get_components(), f_atoms, f_bonds torch.Size([33, 42]) torch.Size([57, 49])
@@@mol_graph.get_components(), f_atoms, f_bonds torch.Size([33, 42]) torch.Size([57, 49])


@@@mol_graph.get_components(), f_atoms, f_bonds torch.Size([33, 42]) torch.Size([57, 49])
…
