…
 'task_names': ['spin_densities', 'charges_all_atom', 'INT_MOL_PROPS'],
 'test': False,
 'test_fold_index': None,
 'train_data_size': 178910,
 'undirected': False,
 'use_compound_names': False,
 'use_conf_id': False,
 'use_input_features': None,
 'val_fold_index': None,
 'warmup_epochs': 2.0}
Loading data
Number of tasks = 3
Splitting data with seed 0
Total size = 223,638 | train size = 178,910 | val size = 44,728 | test size = 5,878
Fitting scaler
Building model 0
MoleculeModel(
  (encoder): MPN(
    (encoder): MPNEncoder(
      (dropout_layer): Dropout(p=0.0, inplace=False)
      (act_func): ReLU()
      (W_i): Linear(in_features=49, out_features=1200, bias=False)
      (W_h): Linear(in_features=1200, out_features=1200, bias=False)
      (W_o_a): Linear(in_features=1242, out_features=1200, bias=True)
      (W_o_b): Linear(in_features=1249, out_features=1200, bias=True)
    )
  )
  (readout): MultiReadout(
    (readout_0): FFN(
      (ffn): DenseLayers(
        (dense_layers): Sequential(
          (0): Dropout(p=0.0, inplace=False)
          (1): Linear(in_features=1200, out_features=900, bias=True)
          (2): ReLU()
          (3): Dropout(p=0.0, inplace=False)
          (4): Linear(in_features=900, out_features=900, bias=True)
          (5): ReLU()
          (6): Dropout(p=0.0, inplace=False)
          (7): Linear(in_features=900, out_features=900, bias=True)
          (8): ReLU()
          (9): Dropout(p=0.0, inplace=False)
          (10): Linear(in_features=900, out_features=1, bias=True)
        )
      )
      (weights_readout): DenseLayers(
        (dense_layers): Sequential(
          (0): Dropout(p=0.0, inplace=False)
          (1): Linear(in_features=1200, out_features=900, bias=True)
          (2): ReLU()
          (3): Dropout(p=0.0, inplace=False)
          (4): Linear(in_features=900, out_features=900, bias=True)
          (5): ReLU()
          (6): Dropout(p=0.0, inplace=False)
          (7): Linear(in_features=900, out_features=900, bias=True)
          (8): ReLU()
          (9): Dropout(p=0.0, inplace=False)
          (10): Linear(in_features=900, out_features=1, bias=True)
        )
      )
    )
    (readout_1): FFN(
      (ffn): DenseLayers(
        (dense_layers): Sequential(
          (0): Dropout(p=0.0, inplace=False)
          (1): Linear(in_features=1200, out_features=900, bias=True)
          (2): ReLU()
          (3): Dropout(p=0.0, inplace=False)
          (4): Linear(in_features=900, out_features=900, bias=True)
          (5): ReLU()
          (6): Dropout(p=0.0, inplace=False)
          (7): Linear(in_features=900, out_features=900, bias=True)
          (8): ReLU()
          (9): Dropout(p=0.0, inplace=False)
          (10): Linear(in_features=900, out_features=1, bias=True)
        )
      )
      (weights_readout): DenseLayers(
        (dense_layers): Sequential(
          (0): Dropout(p=0.0, inplace=False)
          (1): Linear(in_features=1200, out_features=900, bias=True)
          (2): ReLU()
          (3): Dropout(p=0.0, inplace=False)
          (4): Linear(in_features=900, out_features=900, bias=True)
          (5): ReLU()
          (6): Dropout(p=0.0, inplace=False)
          (7): Linear(in_features=900, out_features=900, bias=True)
          (8): ReLU()
          (9): Dropout(p=0.0, inplace=False)
          (10): Linear(in_features=900, out_features=1, bias=True)
        )
      )
    )
    (readout_2): FFN(
      (ffn): DenseLayers(
        (dense_layers): Sequential(
          (0): Dropout(p=0.0, inplace=False)
          (1): Linear(in_features=1200, out_features=900, bias=True)
          (2): ReLU()
          (3): Dropout(p=0.0, inplace=False)
          (4): Linear(in_features=900, out_features=900, bias=True)
          (5): ReLU()
          (6): Dropout(p=0.0, inplace=False)
          (7): Linear(in_features=900, out_features=900, bias=True)
          (8): ReLU()
          (9): Dropout(p=0.0, inplace=False)
          (10): Linear(in_features=900, out_features=3, bias=True)
        )
      )
    )
  )
)
Number of parameters = 18,010,207
Moving model to cuda
Epoch 0
lss_0 = 9.8549e-01, lss_1 = 9.4532e-01, lss_2 = 9.9071e-01, mc_0 = 4.6596e-01, mc_1 = 8.4917e-01, mc_2 = 7.8066e-01, PNorm = 133.7755, GNorm = 19720.1904, lr_0 = 3.4500e-06
lss_0 = 9.5322e-01, lss_1 = 8.8060e-01, lss_2 = 1.0011e+00, mc_0 = 4.5794e-01, mc_1 = 8.2474e-01, mc_2 = 7.7380e-01, PNorm = 133.7756, GNorm = 5.7741, lr_0 = 6.5743e-06
…
